Henry_2024Jan/AutogluonModels/ag-20240108_065620/models/NeuralNetFastAI_BAG_L1/S6F3/model-internals.pkl (torch, 158051 bytes, 16 tensors)

weight f4 [40]
0	0x3f8353d4	1.0259957
1	0x3f8281c5	1.0195853
2	0x3f7fa137	0.9985537
3	0x3f79aecf	0.9753236
4	0x3f816e56	1.0111797
5	0x3f83089e	1.0237005
6	0x3f8054ae	1.0025842
7	0x3f840379	1.031356
8	0x3f787e14	0.9706738
9	0x3f7a9e9d	0.97898275
10	0x3f7f888c	0.9981773
11	0x3f7e575d	0.99352056
12	0x3f777fba	0.9667927
13	0x3f7a114e	0.97682655
14	0x3f7fa3c1	0.99859244
15	0x3f7d9417	0.9905409
16	0x3f78a6ea	0.9712969
17	0x3f7bc302	0.98344433
18	0x3f794daa	0.9738413
19	0x3f7a13aa	0.97686255
20	0x3f81d7a1	1.014393
21	0x3f8023f8	1.0010977
22	0x3f82808c	1.0195479
23	0x3f7ba4f5	0.9829858
24	0x3f7f3755	0.99693805
25	0x3f7e9ef5	0.994613
26	0x3f7acaf6	0.97965944
27	0x3f817e4e	1.011667
28	0x3f832881	1.0246736
29	0x3f8115cd	1.0084778
30	0x3f81ea0b	1.0149549
31	0x3f7dfa54	0.99210095
32	0x3f7f9789	0.998406
33	0x3f826878	1.0188131
34	0x3f81038c	1.0079207
35	0x3f823a1c	1.0173984
36	0x3f7b1d36	0.9809145
37	0x3f84d4f1	1.0377485
38	0x3f82368d	1.0172898
39	0x3f7815b0	0.9690809

bias f4 [40]
0	0xbca7f061	-0.020500364
1	0xbb6283a0	-0.0034563318
2	0x3b9476af	0.0045307497
3	0x3d0621fb	0.03274725
4	0xbcad7a43	-0.021176463
5	0x3b5265f8	0.0032104235
6	0xbc4952c2	-0.012287797
7	0xbcee13c5	-0.029062161
8	0xbc606e16	-0.0136981215
9	0x3cc5a90b	0.024128458
10	0x3c433c15	0.01191618
11	0xbcb0baea	-0.021573503
12	0x3cba8c99	0.02277212
13	0xbb65b439	-0.0035050048
14	0x3d1422cd	0.036166
15	0xbb17ba6d	-0.002315189
16	0x3ce8f4c6	0.02843703
17	0xbbadd8b8	-0.005305376
18	0x3b1afa11	0.0023647586
19	0xbb7d95a2	-0.0038693924
20	0x3b133e8c	0.00224677
21	0xbcbf6a14	-0.023366012
22	0x3a830a4e	0.0009997578
23	0x3b86d0ef	0.0041142623
24	0xbd1694d9	-0.036763046
25	0x3b722e1e	0.0036953758
26	0xbc63a773	-0.0138949035
27	0xbc3cf546	-0.011533087
28	0x3ccedb6d	0.025251115
29	0xbd02bd04	-0.03191854
30	0xbcb98e1f	-0.022650776
31	0xbd1c3cb2	-0.03814382
32	0xbc01d0ff	-0.007923364
33	0xbc86b27b	-0.016442528
34	0xbb063907	-0.0020480768
35	0x3c661bdd	0.014044729
36	0x3c99cb63	0.01877374
37	0xbbd694d1	-0.006548502
38	0x3ccb954f	0.02485147
39	0x3ce56f92	0.028007302

running_mean f4 [40]
0	0x38f03d9a	0.00011455566
1	0x3cb1f0b3	0.02172122
2	0xbbe2d280	-0.006922066
3	0xbc2bf80d	-0.010496152
4	0xbc9abd5b	-0.01888912
5	0x3d1bdf79	0.038054917
6	0x3cb9a637	0.022662265
7	0x3c1fbe37	0.009749941
8	0x3c44c579	0.012009972
9	0xbc4f5a18	-0.012655757
10	0xbc526269	-0.012840846
11	0xbc05afb2	-0.008159565
12	0xbc1d1245	-0.009586875
13	0xbcb31505	-0.021860609
14	0xbc230368	-0.009949543
15	0x3ca697d2	0.020336065
16	0xbcc12a3d	-0.023579711
17	0xbc5ddb5c	-0.013541069
18	0xbc7757d2	-0.015096622
19	0x3cde492a	0.027134497
20	0xbcf92dff	-0.03041744
21	0x3a2a9108	0.00065065967
22	0x3ca8e6f9	0.020617949
23	0xbc48187a	-0.012212867
24	0xbc200cf3	-0.009768712
25	0x3d4f2523	0.050572526
26	0x3d14cdc7	0.036329057
27	0x3cec7127	0.028862549
28	0x3c71eebf	0.014766394
29	0x3ca08590	0.019594938
30	0x3b7953fc	0.0038044443
31	0xbc9356c3	-0.017985707
32	0x3cd00d2a	0.025396902
33	0x3ccae249	0.024766104
34	0x3d02519a	0.031816103
35	0x3c928aaa	0.017888386
36	0x3cadc389	0.021211402
37	0xbc39592a	-0.011312762
38	0x3d227c1d	0.039669145
39	0xbca75f80	-0.02043128

running_var f4 [40]
0	0x3f74868c	0.955178
1	0x3f8aba06	1.083802
2	0x3f826e7c	1.0189967
3	0x3f55746d	0.83380777
4	0x3f7283ef	0.94732565
5	0x3f822203	1.016663
6	0x3f8684d4	1.0509286
7	0x3f7695a1	0.96322066
8	0x3f7054e1	0.93879515
9	0x3f6b666d	0.91953164
10	0x3f733370	0.9500036
11	0x3f7bdc50	0.98383045
12	0x3f668f85	0.90062743
13	0x3f7207f4	0.94543386
14	0x3f8279ac	1.0193381
15	0x3f6b178d	0.9183281
16	0x3f6af86f	0.9178533
17	0x3f791084	0.97290826
18	0x3f71a9cd	0.9439972
19	0x3f88f347	1.0699242
20	0x3f5f8f04	0.873276
21	0x3f7e8b84	0.99431634
22	0x3f7f945d	0.9983576
23	0x3f6c2586	0.92244756
24	0x3f807b11	1.0037557
25	0x3f85bb77	1.0447835
26	0x3f7e66ab	0.9937541
27	0x3f7fd8d8	0.9994025
28	0x3f7e43d9	0.9932228
29	0x3f635a94	0.88810086
30	0x3f7eecc8	0.9958005
31	0x3f7e060e	0.9922799
32	0x3f679bd5	0.90472156
33	0x3f7ac978	0.97963667
34	0x3f8b0355	1.0860392
35	0x3f8cdedc	1.1005511
36	0x3f74e235	0.95657665
37	0x3f7f00f6	0.9961084
38	0x3f82122d	1.0161797
39	0x3f7f0f03	0.9963228

weight f4 [200, 40]
0	0xbb9ecda0	-0.0048462898
1	0x3d8f0ac2	0.06984474
2	0xbe006db4	-0.12541848
3	0xbe0f630a	-0.14002624
4	0xbd8d6eda	-0.06905909
5	0x3c91fc0a	0.017820377
6	0x3c05f2ee	0.008175595
7	0x3dd32e14	0.10311523
8	0xbcf5904d	-0.029976035
9	0x3cad76fd	0.021174902
10	0xbd66d4d8	-0.056355327
11	0xbd2f5b34	-0.042811587
12	0xbe1b1001	-0.15142824
13	0xbdfc8463	-0.12329938
14	0xbd843fe6	-0.064575
15	0xba920f9b	-0.0011143567
16	0x3db028a2	0.086015
17	0x3dd2e000	0.10296631
18	0xbdd38f74	-0.10330096
19	0xbd70754d	-0.058705617
20	0x3d8d85f0	0.06910312
21	0x3e1bec43	0.15226845
22	0xbcc2b801	-0.02376938
23	0x3ddec66c	0.1087769
24	0xbd617801	-0.055046085
25	0x3c859a5c	0.016308956
26	0x3e0c6289	0.13709463
27	0xbe0b1e5d	-0.13585801
28	0xbdd7f6cc	-0.1054512
29	0xbcf807e1	-0.030277194
30	0xbd4e279a	-0.050330736
31	0x3de13030	0.10995519
32	0xbdf3e4ec	-0.11908898
33	0xbdd1c9d8	-0.10243577
34	0xbdf03bff	-0.11730193
35	0xbe40ed7c	-0.18840593
36	0xbdef38fc	-0.11680791
37	0x3e099817	0.13436924
38	0x3db6833d	0.089117505
39	0x3d8697eb	0.06571945
40	0x3d13184b	0.03591184
41	0xbdb51309	-0.08841521
42	0x3c8c1dca	0.017104048
43	0xbe1f0783	-0.15530209
44	0xbdf580a3	-0.11987426
45	0xbdc7f2eb	-0.0976313
46	0x3dc3eff8	0.09567255
47	0x3de3df68	0.11126596
48	0xbdb83c76	-0.08995907
49	0xbd23d6a4	-0.03999962
50	0x3da3be68	0.079953015
51	0x3e01b987	0.1266843
52	0x3d5a33d8	0.0532721
53	0xbb490901	-0.0030675533
54	0x3dccb396	0.09995191
55	0xbdbe2a19	-0.09285373
56	0x3d03bd7b	0.032163125
57	0xbe09e5c8	-0.13466561
58	0xbe0533dd	-0.13008066
59	0xbd8b5edb	-0.068052016
60	0x3d91a83a	0.07112165
61	0x3d897505	0.06711773
62	0xbdb616b9	-0.08891053
63	0x3cac6bb2	0.021047447
64	0x3dd23aaf	0.10265099
65	0xbd18a8b6	-0.03727027
66	0x3abf026b	0.0014572864
67	0x3d4b9ca5	0.049709935
68	0x3db18c61	0.08669353
69	0x3e12dd3a	0.14342204
70	0xbdf8d8f6	-0.12150757
71	0xbd59a4a5	-0.053135533
72	0x3d92dd2a	0.0717109
73	0x3e05d347	0.13068877
74	0x3e07981c	0.13241619
75	0x3dfdcd55	0.123926796
76	0x3c260c6e	0.010134799
77	0xbe240c8e	-0.16020414
78	0x3cdd72da	0.027032305
79	0xbde85ec0	-0.11346197
80	0xbe00f267	-0.12592469
81	0x3e1b78d2	0.15182808
82	0x3df5d2eb	0.1200312
83	0xbe2c9af9	-0.16855992
84	0x3cc3802b	0.023864826
85	0xbd21893f	-0.03943753
86	0xbb6387f8	-0.0034718495
87	0xbd5ee9ae	-0.054422073
88	0x3d198191	0.03747708
89	0xbd9ea54d	-0.07746372
90	0x3d0c2a65	0.034220118
91	0x3d8a6ee1	0.0675943
92	0x3e024512	0.1272166
93	0x3d2d7d08	0.042355567
94	0xbe2a4155	-0.16626485
95	0xbda64ae1	-0.08119751
96	0x3ddcc7a8	0.10780269
97	0x3d4fb329	0.05070797
98	0xbe0d542e	-0.13801643
99	0xbd969da6	-0.07354288
100	0x3e3acb7e	0.18241689
101	0x3df9d3bb	0.121985875
102	0xbd34f756	-0.04418119
103	0xbcd1745d	-0.025568182
104	0xbe0486da	-0.12942067
105	0x3b98f60a	0.004668002
106	0xbdeed96b	-0.11662563
107	0xbe17162f	-0.14754556
108	0xbcf9943c	-0.030466191
109	0x3cbbb5d8	0.022913858
110	0xbce59fec	-0.028030358
111	0x3df4ed3e	0.11959313
112	0xbdbd422f	-0.09241139
113	0x3e1341fc	0.1438064
114	0x3df2effb	0.11862179
115	0xbdb52a04	-0.088459045
116	0xbd7c8d39	-0.061658118
117	0xbb994c1c	-0.0046782624
118	0x3bff7325	0.0077957087
119	0x3d40e6bf	0.047095057
120	0x3cdf1dd9	0.027235912
121	0x3d0bb04f	0.034103688
122	0xbd840c84	-0.064477
123	0x3dae2ec9	0.08505017
124	0xbe255b4d	-0.1614811
125	0xbdb38353	-0.087652825
126	0xbccd6f42	-0.025077466
127	0xbdc40ef8	-0.095731676
128	0xbd3909b9	-0.045175288
129	0xbdfc4a5f	-0.12318873
130	0xbc1fabdd	-0.009745565
131	0x3d427435	0.047474105
132	0xbdc5fc9c	-0.09667322
133	0x3c0a37d7	0.008436165
134	0x3e057181	0.1303158
135	0xbcc53776	-0.024074297
136	0xbbd2e0ac	-0.0064354744
137	0xbc84c407	-0.016206754
138	0x3d40e2f3	0.047091436
139	0x3da14a13	0.07875457
140	0x3e146eec	0.14495438
141	0x3dfdc5e7	0.123912625
142	0x3df60788	0.12013155
143	0x3b7165c8	0.0036834348
144	0xbe196aca	-0.14982143
145	0xbdab12f9	-0.08353228
146	0x3de882a6	0.11353044
147	0x3c3c610f	0.01149775
148	0xbd8d6b42	-0.069052234
149	0xbde71751	-0.11283744
150	0xbe1be2e0	-0.15223265
151	0xbe1c82f1	-0.15284325
152	0xbd0e6c13	-0.034771036
153	0x3dc899ec	0.09794983
154	0x3da35faf	0.079772346
155	0xbe239535	-0.15974887
156	0x3de9ca61	0.11415554
157	0xbdfdafa3	-0.12387016
158	0xbd25c6bb	-0.040472727
159	0xbd530414	-0.05151756
160	0xbd2f8b2d	-0.042857338
161	0xbc03f65f	-0.008054345
162	0xbdf7fe63	-0.12109067
163	0xbe0aac27	-0.13542233
164	0xbb56b0f2	-0.0032759276
165	0x3c37fb1e	0.011229305
166	0xbddac0b8	-0.106812894
167	0x3d7f8010	0.06237799
168	0xbded14d6	-0.1157624
169	0xbceadbc1	-0.02866924
170	0x3e288c23	0.16459708
171	0xbd5dc79f	-0.05414545
172	0x3deaf6b6	0.114728376
173	0x3d491231	0.049089614
174	0xbe10d0c2	-0.14142135
175	0x3dc09d77	0.09405034
176	0xbd3b341e	-0.045704
177	0xbdc48fb3	-0.09597721
178	0x3e191a76	0.149515
179	0xbe209b7b	-0.15684311
180	0xbc54231a	-0.012947822
181	0xbd8854b4	-0.06656781
182	0x3dc6526b	0.09683689
183	0x3d02fe27	0.03198066
184	0x3dbfbf1b	0.09362622
185	0x3d7622bd	0.060091723
186	0xbd138202	-0.036012657
187	0xbcdfbc2f	-0.027311413
188	0xbde9fdb3	-0.114253424
189	0x3d929f11	0.07159246
190	0x3e041418	0.1289829
191	0x3de81eb5	0.11333982
192	0xbdf1ebab	-0.11812528
193	0x3b769b9b	0.003762937
194	0xbe08ab30	-0.13346553
195	0xbdb3bd64	-0.08776358
196	0xbd6d31c0	-0.057908773
197	0x3d7d7959	0.061883304
198	0xbdae3425	-0.085060395
199	0xbbf465b0	-0.007458411
200	0xbc9ba7a0	-0.019000828
201	0x3df87b99	0.121329494
202	0xbdf599f9	-0.119922586
203	0xbdf272dd	-0.11838315
204	0xbdd70b93	-0.105002545
205	0x3dec0527	0.1152442
206	0xbc358f90	-0.011081591
207	0x3df78590	0.12086022
208	0x3d8b3ce0	0.0679872
209	0x3ba8fffe	0.00515747
210	0xbba3a6fa	-0.0049942704
211	0xbd26c11b	-0.040711503
212	0x3cad9295	0.02118806
213	0xbd3a6f26	-0.045516156
214	0xbbb92cae	-0.005651078
215	0x3aa492ee	0.0012555995
216	0xbdf51b62	-0.119681135
217	0xbdba8aef	-0.09108531
218	0x3df4d171	0.1195401
219	0xbdd7a68f	-0.105298154
220	0xba5f6f9c	-0.0008523406
221	0x3e38c56b	0.18044059
222	0x3ce8ec27	0.028432919
223	0xbb8383b0	-0.004013501
224	0xbe0e25b7	-0.13881575
225	0x3d94b22f	0.07260548
226	0xbdb88c36	-0.09011118
227	0xbd1e4dbe	-0.03864836
228	0xbd7ad088	-0.061234027
229	0xbc51d885	-0.01280797
230	0xbb7c2154	-0.0038472014
231	0x3e03dedf	0.12877987
232	0x3bd6c6d9	0.006554466
233	0x3e15e721	0.1463895
234	0x3dfd68b0	0.12373483
235	0xbdb70c53	-0.089378975
236	0x3d6114b9	0.054951403
237	0xbe075403	-0.13215642
238	0xbdb5e3b2	-0.0888132
239	0x3ce11dd8	0.02748005
240	0x3d5596b1	0.052145664
241	0x3e01f08e	0.1268942
242	0xbd3ab926	-0.045586728
243	0x3c46d1f2	0.012135016
244	0x3dcc5763	0.09977605
245	0xbe20244f	-0.1563885
246	0x3df568d8	0.11982888
247	0xbe11f1cc	-0.14252394
248	0x3ced0489	0.028932827
249	0xbd60aafd	-0.054850567
250	0xbd86fa13	-0.065906666
251	0x3cc63d0c	0.024199031
252	0x3de81f7d	0.11334131
253	0xbd2b0295	-0.04175051
254	0xbdca6db5	-0.09884206
255	0xbd5fe717	-0.054663744

weight f4 [200]
0	0x3f779c61	0.9672299
1	0x3f81a7d9	1.0129348
2	0x3f8046b1	1.0021573
3	0x3f81c01f	1.0136756
4	0x3f7edbef	0.9955434
5	0x3f7d003e	0.98828495
6	0x3f8122f1	1.0088788
7	0x3f81a469	1.0128299
8	0x3f82041a	1.0157502
9	0x3f796180	0.974144
10	0x3f7c2828	0.98498774
11	0x3f7f2124	0.99659944
12	0x3f777b1b	0.9667222
13	0x3f82b137	1.0210332
14	0x3f7d7ccb	0.99018544
15	0x3f825c97	1.0184506
16	0x3f7ef3ee	0.9959096
17	0x3f809658	1.0045881
18	0x3f816401	1.0108644
19	0x3f82afc8	1.0209894
20	0x3f80e80a	1.0070813
21	0x3f7fa595	0.99862033
22	0x3f7a9d90	0.9789667
23	0x3f7f4b47	0.9972424
24	0x3f7d5d98	0.9897094
25	0x3f83492a	1.0256703
26	0x3f7c8341	0.9863778
27	0x3f7e7adc	0.9940622
28	0x3f819508	1.0123606
29	0x3f8047c2	1.0021899
30	0x3f7a369d	0.97739583
31	0x3f7a34dd	0.9773691
32	0x3f7eedd8	0.9958167
33	0x3f7b41f4	0.9814751
34	0x3f825a62	1.0183833
35	0x3f816147	1.0107812
36	0x3f7f1eec	0.9965656
37	0x3f7cd3d7	0.9876074
38	0x3f7f5411	0.9973765
39	0x3f7d06d8	0.9883857
40	0x3f82baa5	1.0213209
41	0x3f826607	1.0187386
42	0x3f81edfe	1.0150754
43	0x3f84535c	1.0337939
44	0x3f7fbd5c	0.99898314
45	0x3f80225c	1.0010486
46	0x3f790b86	0.9728321
47	0x3f8064c4	1.0030751
48	0x3f7c7f4a	0.9863173
49	0x3f78b0ea	0.9714495
50	0x3f8273d9	1.0191604
51	0x3f800075	1.000014
52	0x3f7cc590	0.98738956
53	0x3f802a37	1.0012883
54	0x3f7dbe67	0.99118656
55	0x3f7f5827	0.99743885
56	0x3f7dbd0d	0.99116594
57	0x3f7e6ab4	0.99381566
58	0x3f81d539	1.0143195
59	0x3f7835e2	0.9695722
60	0x3f78cdd3	0.9718906
61	0x3f82b4e1	1.021145
62	0x3f818db7	1.0121373
63	0x3f7df29b	0.9919831
64	0x3f8047f7	1.0021962
65	0x3f7a9f50	0.9789934
66	0x3f806757	1.0031537
67	0x3f79bde3	0.9755537
68	0x3f7dd86a	0.99158347
69	0x3f80c064	1.0058713
70	0x3f81af4f	1.0131625
71	0x3f79c686	0.9756855
72	0x3f7d753e	0.9900702
73	0x3f837786	1.0270851
74	0x3f810f2d	1.0082756
75	0x3f806201	1.0029908
76	0x3f821ee7	1.0165681
77	0x3f84779c	1.0349002
78	0x3f84dabf	1.0379256
79	0x3f7c62a6	0.98588026
80	0x3f806b4c	1.0032744
81	0x3f869c3a	1.0516427
82	0x3f7d0189	0.9883047
83	0x3f7afc87	0.98041576
84	0x3f7b7427	0.9822411
85	0x3f8320d3	1.0244392
86	0x3f7a6ff3	0.9782707
87	0x3f80a6fe	1.0050962
88	0x3f817843	1.0114826
89	0x3f82b02c	1.0210013
90	0x3f7c6ea3	0.9860632
91	0x3f7c6880	0.98596954
92	0x3f83369b	1.0251039
93	0x3f80957e	1.0045621
94	0x3f808129	1.0039417
95	0x3f7ef825	0.9959739
96	0x3f7d33f3	0.98907393
97	0x3f7c2394	0.9849179
98	0x3f8393eb	1.0279516
99	0x3f8099fc	1.0046992
100	0x3f82cc63	1.0218624
101	0x3f82612e	1.0185907
102	0x3f801688	1.0006876
103	0x3f81a73d	1.0129162
104	0x3f80235c	1.0010791
105	0x3f7dbdce	0.99117744
106	0x3f84ffdb	1.0390581
107	0x3f7b5a60	0.98184776
108	0x3f7d5f76	0.98973787
109	0x3f7c6d27	0.98604053
110	0x3f803a9d	1.0017887
111	0x3f7ab963	0.9793913
112	0x3f80050f	1.0001544
113	0x3f7d58c9	0.989636
114	0x3f7e56c2	0.9935113
115	0x3f808ece	1.004358
116	0x3f80bf2d	1.0058342
117	0x3f818212	1.0117819
118	0x3f834d6f	1.0258006
119	0x3f81b618	1.0133696
120	0x3f7d79e2	0.99014103
121	0x3f807cfd	1.0038143
122	0x3f81e42f	1.0147761
123	0x3f833f89	1.0253764
124	0x3f77c53e	0.9678534
125	0x3f806f87	1.0034035
126	0x3f799bf8	0.97503614
127	0x3f80e2e8	1.0069246
128	0x3f81ce21	1.014103
129	0x3f8088c7	1.0041741
130	0x3f763014	0.9616711
131	0x3f82421c	1.0176425
132	0x3f82a068	1.0205202
133	0x3f825a0c	1.018373
134	0x3f7c7a68	0.9862428
135	0x3f812f97	1.0092648
136	0x3f7ce9a0	0.98793983
137	0x3f7d2b47	0.9889416
138	0x3f8352d0	1.0259647
139	0x3f7815bb	0.9690816
140	0x3f7f1a2e	0.9964932
141	0x3f834ef4	1.025847
142	0x3f7e0219	0.9922195
143	0x3f81cd42	1.0140765
144	0x3f8089e2	1.0042078
145	0x3f817e66	1.0116699
146	0x3f7e421b	0.9931962
147	0x3f8210cd	1.0161377
148	0x3f80b672	1.0055678
149	0x3f80ccfd	1.0062557
150	0x3f7a2c16	0.9772352
151	0x3f7d5c8b	0.98969334
152	0x3f80c154	1.0058999
153	0x3f82acda	1.0209
154	0x3f7b4729	0.98155457
155	0x3f800e36	1.0004337
156	0x3f80a6b3	1.0050873
157	0x3f800901	1.0002748
158	0x3f783f2b	0.96971387
159	0x3f7feda9	0.99972016
160	0x3f8220f5	1.0166308
161	0x3f847fa0	1.0351448
162	0x3f803cb6	1.0018528
163	0x3f809328	1.0044909
164	0x3f7c0c03	0.9845583
165	0x3f802ceb	1.0013708
166	0x3f7cb168	0.987082
167	0x3f79ef79	0.9763103
168	0x3f76553f	0.96223825
169	0x3f79c2c9	0.97562844
170	0x3f84b8d1	1.0368901
171	0x3f80f110	1.0073566
172	0x3f81c477	1.0138081
173	0x3f8204f4	1.0157762
174	0x3f822cd8	1.0169935
175	0x3f799121	0.97487074
176	0x3f78dbf1	0.97210604
177	0x3f7e1da8	0.99264
178	0x3f80c5e2	1.0060389
179	0x3f793ec2	0.97361386
180	0x3f816223	1.0108074
181	0x3f7f8a2e	0.9982022
182	0x3f7fb0d5	0.998792
183	0x3f7c00ee	0.9843892
184	0x3f7ce742	0.9879037
185	0x3f7c7752	0.9861957
186	0x3f82543e	1.0181959
187	0x3f82fe2c	1.0233817
188	0x3f794a46	0.9737896
189	0x3f7f8c8d	0.9982384
190	0x3f7d197c	0.9886701
191	0x3f7b105b	0.9807183
192	0x3f7fd519	0.99934536
193	0x3f7e65b1	0.9937392
194	0x3f7effc9	0.9960905
195	0x3f78e9e6	0.972319
196	0x3f7e3bc4	0.99309945
197	0x3f7eea0a	0.99575865
198	0x3f7e749d	0.9939669
199	0x3f7bfe15	0.98434573

bias f4 [200]
0	0x3a472e24	0.0007598123
1	0xbc032544	-0.00800449
2	0x3b2dc127	0.0026512833
3	0x3cdc6923	0.026905602
4	0x3c41b431	0.011822746
5	0x3ce3c664	0.027804561
6	0x3c70028c	0.014649045
7	0x3c01acf4	0.00791477
8	0x3c0c6ddd	0.008571115
9	0x3b2a48d0	0.002598334
10	0x3c83669e	0.016040143
11	0xbbcab770	-0.0061864182
12	0x3cd4db5b	0.025983503
13	0xbcd95bb0	-0.026532978
14	0xbc83904c	-0.016060017
15	0xbbfcd69e	-0.007716014
16	0x3ccfcba0	0.02536565
17	0x3bf5e880	0.007504523
18	0xbb49f324	-0.003081509
19	0xbc8ccb1b	-0.017186692
20	0xbc4bdec5	-0.012443249
21	0xbc0a9277	-0.0084577715
22	0x3c1c92fb	0.009556527
23	0xbb938501	-0.0045019393
24	0xbc72df02	-0.014823677
25	0xbc4a830d	-0.0123603465
26	0x3a3971ec	0.00070741656
27	0x3c73f00c	0.014888775
28	0xbbc88020	-0.0061187893
29	0xbc078c3f	-0.008273183
30	0x3c1aa2f9	0.00943827
31	0xbbc7046d	-0.0060735256
32	0x3bf7d164	0.007562803
33	0x3a92c102	0.0011196437
34	0xbc1b864a	-0.009492466
35	0xbc209924	-0.009802137
36	0xbc87050d	-0.0164819
37	0xbca3f900	-0.020016193
38	0xbc251e24	-0.010077987
39	0x3c675f58	0.014121853
40	0xbc555356	-0.013020357
41	0x3cdf88ca	0.027286906
42	0xbc3f014f	-0.011658027
43	0x3cb98641	0.022647025
44	0xbc8926ce	-0.016742136
45	0xbbc6cbe3	-0.0060667857
46	0x3bfede1e	0.0077779433
47	0x3d11645c	0.0354961
48	0x3c71f704	0.014768366
49	0x3c836711	0.016040357
50	0xba4b4c08	-0.0007755165
51	0x3cca0314	0.02465967
52	0x3ab0f1d8	0.001349981
53	0x3c74f258	0.014950357
54	0xbbdb27b9	-0.006688085
55	0x3c7c27a6	0.015390312
56	0xbcace917	-0.02110724
57	0xbbcf0c0b	-0.0063185743
58	0x3c53bd82	0.0129236
59	0x3bd98040	0.006637603
60	0xbb7d6966	-0.0038667559
61	0x3c89ca18	0.016819999
62	0x3a771cc0	0.00094265863
63	0x3c2b6a9c	0.010462429
64	0x3cb49fee	0.022048917
65	0xbc7b1fe7	-0.01532743
66	0xbc300adb	-0.010744776
67	0xbba7b478	-0.005117949
68	0x3b444276	0.002994684
69	0xbcdf7b28	-0.027280405
70	0x3bd001cf	0.006347872
71	0x3d1286eb	0.0357732
72	0x3c8978b2	0.016781185
73	0xbd0d3e20	-0.034483075
74	0x3b9c40ae	0.0047684526
75	0xbb5c25b4	-0.0033591809
76	0xbbe8dc1f	-0.0071063186
77	0xbcd84f65	-0.026405046
78	0xbbba0c52	-0.005677738
79	0x3bb75fb4	0.0055961255
80	0xbbd0239d	-0.0063519017
81	0xbb8bf120	-0.0042706877
82	0x3d081588	0.03322366
83	0x3b29c3ae	0.0025903988
84	0xbcdfffc7	-0.027343644
85	0xbd09cae1	-0.033640746
86	0x3c98c137	0.01864682
87	0xbab4c227	-0.0013790772
88	0xbbe77f06	-0.007064703
89	0xbc0dc347	-0.008652515
90	0xbc5240d5	-0.01283284
91	0xbba5b4bc	-0.0050569456
92	0x3b8bbe10	0.0042646006
93	0x3c62a90c	0.013834249
94	0xbca1bd5d	-0.019743616
95	0xbc2adbec	-0.01042841
96	0x3cf61db9	0.03004347
97	0x3cc75450	0.024332196
98	0xbca84d3a	-0.020544637
99	0x3b927a20	0.004470125
100	0x3c8ed9bd	0.01743781
101	0x3c59195c	0.013250675
102	0xba86bfc0	-0.0010280535
103	0xb9844ee3	-0.00025235777
104	0x3ca79442	0.020456437
105	0xbbdbca1b	-0.0067074425
106	0x3c9f72e2	0.01946396
107	0xbd14bc9f	-0.036312696
108	0x3c8b151d	0.016977841
109	0xbc5e8f1c	-0.013583925
110	0xbb5b39b1	-0.0033451135
111	0x3cbe5507	0.023233904
112	0xbb228fcd	-0.002480495
113	0x3cc9fcba	0.024656642
114	0x39a65c7c	0.00031730894
115	0xbba153b3	-0.004923308
116	0xbc32b4ff	-0.010907411
117	0xbb85f06a	-0.0040874975
118	0xbc1ef26f	-0.009701355
119	0xbc2938f0	-0.010328516
120	0xbc8d5159	-0.017250704
121	0xbbf08603	-0.007340194
122	0x3cc636ec	0.02419611
123	0x3c072cae	0.008250399
124	0x3cd39544	0.025828011
125	0xbccdbf3c	-0.025115602
126	0x3cd2d4cd	0.025736237
127	0x3cfccee1	0.030860366
128	0xbc42f976	-0.011900296
129	0x3d046cde	0.032330386
130	0xbc1392d7	-0.009007177
131	0xbc2dba6e	-0.01060353
132	0x3c06dbb2	0.00823109
133	0x3a21c5d6	0.00061711424
134	0x3c413d66	0.011794424
135	0x3c450d5e	0.012027113
136	0x3bee4aee	0.007272116
137	0x3c872f26	0.016501974
138	0xbc8e736c	-0.017389022
139	0x3c31d79a	0.010854626
140	0xbc55d1c8	-0.013050504
141	0x3d3036ac	0.04302089
142	0x3b6b1508	0.003587069
143	0xbc5625b0	-0.013070509
144	0x3b942b40	0.0045217574
145	0xbc61c95f	-0.013780921
146	0x3c3266d6	0.010888776
147	0xbc1c3ab3	-0.009535479
148	0x3d399938	0.045312136
149	0x3bb84502	0.0056234607
150	0x3d155237	0.03645536
151	0x3d1f69fa	0.038919427
152	0x3c1e64db	0.0096676005
153	0x3c835255	0.01603047
154	0xbb693394	-0.0035583721
155	0x3a1f33ac	0.00060730684
156	0x3d02d30a	0.031939544
157	0x3cd3617c	0.02580332
158	0x3cc25ff2	0.02372739
159	0x3c2b25e4	0.010446046
160	0x3b71c84b	0.0036893066
161	0xbc299a3c	-0.010351714
162	0x3bcac30c	0.006187802
163	0xbbfd3b4c	-0.007728016
164	0x3c452045	0.012031619
165	0xbbd34036	-0.0064468635
166	0x3b6ba16b	0.0035954367
167	0x3b0d2dba	0.0021542148
168	0x3ccaa027	0.02473457
169	0x3c486329	0.012230673
170	0xbcce3ea0	-0.025176346
171	0x3c071938	0.008245759
172	0xbbe94a6d	-0.007119468
173	0x3b19cf26	0.0023469417
174	0x3cab98ed	0.020946944
175	0xbab6ab2a	-0.0013936509
176	0xbc0d33fa	-0.008618349
177	0xbc80a283	-0.015702492
178	0xbce37ac0	-0.027768493
179	0x3ce8114d	0.028328562
180	0xbd0d6a26	-0.03452506
181	0x3c5a3950	0.013319328
182	0x3b1d4a72	0.0024000672
183	0x3aae0e20	0.0013279356
184	0x3c24f14a	0.010067293
185	0xbc350b1a	-0.01105001
186	0x3bde40ab	0.0067826114
187	0xbad8698e	-0.001651095
188	0x3ca3a025	0.019973824
189	0xbc0a1d55	-0.008429845
190	0xbcd1ce56	-0.025611084
191	0x3ca65667	0.020304872
192	0x3c931411	0.017953904
193	0xbc1e3d64	-0.009658191
194	0x3baee748	0.0053376295
195	0x3d06fdbe	0.03295683
196	0x3c1faf6d	0.009746415
197	0x3c0be15d	0.0085376175
198	0x3cd1e9f4	0.025624253
199	0x3a33d90c	0.00068606506

running_mean f4 [200]
0	0x3e5c0ab2	0.21488455
1	0x3e39809f	0.18115471
2	0x3e4aafd8	0.19793642
3	0x3e68ddb9	0.2274083
4	0x3e43bd59	0.19115199
5	0x3e129bd9	0.14317264
6	0x3e412e3c	0.18865293
7	0x3e0441cc	0.12915725
8	0x3e6f69b0	0.2338016
9	0x3e3896ab	0.18026225
10	0x3e765206	0.24054727
11	0x3e5888f1	0.21145989
12	0x3e2a0998	0.16605222
13	0x3e211fb7	0.15734755
14	0x3e783e4c	0.24242514
15	0x3eb18595	0.34672228
16	0x3ea34667	0.3188965
17	0x3e454eea	0.19268385
18	0x3e77e393	0.24207906
19	0x3e2ef2f9	0.17084874
20	0x3e179986	0.14804658
21	0x3e74eed0	0.23919225
22	0x3e23bfc8	0.15991127
23	0x3e8edc07	0.27902243
24	0x3e620b7a	0.2207469
25	0x3e64ea14	0.22354919
26	0x3e6a6b2a	0.22892442
27	0x3e83dd94	0.25754988
28	0x3e60340e	0.21894857
29	0x3e836e9f	0.25670335
30	0x3e6c318b	0.23065774
31	0x3ea0769f	0.313405
32	0x3e51b2be	0.20478341
33	0x3e5a31a2	0.21307996
34	0x3e7add52	0.2449849
35	0x3e2f1cc5	0.17100818
36	0x3e432eb0	0.19060779
37	0x3e19d4e8	0.15022624
38	0x3e810e65	0.25206295
39	0x3e73fc33	0.23826675
40	0x3e5aae75	0.21355613
41	0x3e75d063	0.24005274
42	0x3e3e7f84	0.18603331
43	0x3e1e93f1	0.15486123
44	0x3e285306	0.16437921
45	0x3e54a6bb	0.20766728
46	0x3e88d0c3	0.26721773
47	0x3e5bf835	0.21481402
48	0x3e42492b	0.18973224
49	0x3e6ae659	0.22939433
50	0x3e1d517a	0.15363112
51	0x3e3a4dbb	0.18193714
52	0x3e8931a2	0.2679568
53	0x3e564a51	0.20926787
54	0x3e90e116	0.28296727
55	0x3e320f9a	0.17388764
56	0x3e174c54	0.1477521
57	0x3e2f1528	0.17097914
58	0x3e3c1a1a	0.18369332
59	0x3e2411ac	0.16022366
60	0x3e39009a	0.18066636
61	0x3df96b52	0.12178673
62	0x3eba74fb	0.36417374
63	0x3e5ba563	0.21449809
64	0x3e7e7eba	0.2485303
65	0x3e3fc118	0.18726003
66	0x3e56cad2	0.20975807
67	0x3e2ec085	0.17065628
68	0x3e146a82	0.14493755
69	0x3e33b5c4	0.17549807
70	0x3e1dd026	0.15411434
71	0x3e15b5a2	0.14620069
72	0x3e4d91b6	0.20075116
73	0x3e39a922	0.18130925
74	0x3e4caa51	0.19986846
75	0x3e58a7d8	0.21157777
76	0x3e22235d	0.15833803
77	0x3e294ee9	0.16534008
78	0x3e5ba780	0.21450615
79	0x3e39fdb8	0.18163192
80	0x3e406ac4	0.18790728
81	0x3e51d6de	0.20492122
82	0x3e3bd474	0.18342763
83	0x3e29d84c	0.16586417
84	0x3e4d771e	0.20064971
85	0x3e4f8b32	0.20267943
86	0x3df0c9a8	0.11757213
87	0x3e1b69a3	0.15177016
88	0x3e3cf17a	0.18451491
89	0x3e02c7a6	0.12771472
90	0x3e8f0db7	0.2794015
91	0x3e07758b	0.13228433
92	0x3e527ecd	0.20556183
93	0x3e4e8215	0.2016681
94	0x3e93f644	0.28898823
95	0x3e3d13f9	0.1846465
96	0x3e6493cb	0.22322004
97	0x3e7b1994	0.24521476
98	0x3e5a9066	0.21344146
99	0x3e3d7086	0.18499956
100	0x3e41a809	0.18911757
101	0x3df9ef35	0.12203828
102	0x3e5ee339	0.21766366
103	0x3e46dd6a	0.194204
104	0x3e1d97a3	0.15389876
105	0x3e5169f4	0.20450574
106	0x3e39aa28	0.18131316
107	0x3e33bf1f	0.17553376
108	0x3e2cb9d1	0.16867758
109	0x3e436578	0.19081676
110	0x3e711073	0.23541431
111	0x3e3fa909	0.18716826
112	0x3e5d13fe	0.21589658
113	0x3e511403	0.2041779
114	0x3e5f16d5	0.21786053
115	0x3e306253	0.17225008
116	0x3e21423c	0.15747923
117	0x3e80b95f	0.25141427
118	0x3e1d7492	0.153765
119	0x3e294464	0.16529995
120	0x3e1aa52a	0.15102068
121	0x3e5790a6	0.21051273
122	0x3e4455b5	0.1917332
123	0x3e0dcd17	0.13847767
124	0x3e9c5bd4	0.3053881
125	0x3e3f719b	0.18695681
126	0x3e662947	0.22476684
127	0x3e1900b8	0.1494168
128	0x3e66976c	0.225187
129	0x3e1c397e	0.15256307
130	0x3e334119	0.17505302
131	0x3e0eed33	0.13957672
132	0x3e0a4e65	0.13506468
133	0x3e226117	0.1585735
134	0x3e0e13fc	0.13874811
135	0x3e61f3f2	0.22065714
136	0x3e862967	0.26203462
137	0x3e4cd9a1	0.20004894
138	0x3e1fcddb	0.15605871
139	0x3e42c095	0.19018777
140	0x3ea9dd9b	0.33176884
141	0x3e7a28b9	0.24429597
142	0x3e3c2e60	0.18377066
143	0x3e5ff1e4	0.21869618
144	0x3e396006	0.18103036
145	0x3e2192f6	0.15778717
146	0x3e3d3ec3	0.18480973
147	0x3e22e10a	0.15906158
148	0x3e1b6753	0.15176134
149	0x3e0fcf75	0.14043982
150	0x3e680b54	0.22660571
151	0x3e590222	0.2119222
152	0x3e6fde93	0.23424749
153	0x3e3d2726	0.18471965
154	0x3e784979	0.24246778
155	0x3e2c70eb	0.1683995
156	0x3e8532c2	0.26015288
157	0x3e6e620f	0.23279594
158	0x3e19f343	0.15034203
159	0x3e2a6d74	0.16643316
160	0x3e0f7313	0.14008741
161	0x3e406538	0.18788612
162	0x3e1e8676	0.1548098
163	0x3e7d9e4d	0.24767418
164	0x3e95ab65	0.29232326
165	0x3e6f6b82	0.23380855
166	0x3e609bd6	0.21934447
167	0x3e4440df	0.19165371
168	0x3e48eed0	0.1962235
169	0x3e57307b	0.21014588
170	0x3e62dbf7	0.22154222
171	0x3e6459c9	0.22299875
172	0x3e2068f4	0.15665036
173	0x3e374858	0.1789869
174	0x3e8c29d7	0.2737567
175	0x3e233f45	0.15942104
176	0x3e36aeb6	0.17840084
177	0x3e01ba4a	0.1266872
178	0x3e28f1fa	0.16498557
179	0x3e28cdd4	0.16484767
180	0x3e49412a	0.19653764
181	0x3e2b175c	0.1670813
182	0x3e05c236	0.13062367
183	0x3e463dee	0.19359562
184	0x3dfe9ae0	0.12431884
185	0x3e8f259a	0.27958375
186	0x3e25ac02	0.16178897
187	0x3e1f254c	0.15541571
188	0x3e57b7da	0.21066228
189	0x3e0b2279	0.13587369
190	0x3e607db8	0.21922958
191	0x3e409838	0.18808067
192	0x3e4077c9	0.18795694
193	0x3e7b2862	0.24527124
194	0x3e37342a	0.17890993
195	0x3e63ae28	0.22234404
196	0x3e54d0f5	0.20782836
197	0x3e5a6904	0.21329123
198	0x3e434fc2	0.19073394
199	0x3e626bd1	0.22111441

running_var f4 [200]
0	0x3ea6a00d	0.32543984
1	0x3e55bddc	0.20873207
2	0x3e644af0	0.22294211
3	0x3e526325	0.20545633
4	0x3e4fb78d	0.20284863
5	0x3e15a284	0.14612776
6	0x3e31ddee	0.17369816
7	0x3e22d1c4	0.15900332
8	0x3e900f6d	0.2813677
9	0x3e619d71	0.22032715
10	0x3e890811	0.26763967
11	0x3e7ecb6a	0.24882284
12	0x3e45686a	0.19278112
13	0x3e22e71d	0.15908475
14	0x3e778940	0.2417345
15	0x3ebdb158	0.37049365
16	0x3eb751c8	0.35804582
17	0x3e682360	0.22669744
18	0x3e6eeaa3	0.23331694
19	0x3e4fc6f8	0.20290744
20	0x3e418792	0.18899372
21	0x3e9437a7	0.2894871
22	0x3e319296	0.17341074
23	0x3ec5305b	0.38513455
24	0x3e78190c	0.24228305
25	0x3e68dd00	0.22740555
26	0x3e987962	0.29780108
27	0x3e9469ad	0.28986874
28	0x3e524b17	0.20536457
29	0x3e6ff5bf	0.23433588
30	0x3e88143c	0.26577938
31	0x3ea12533	0.31473693
32	0x3e6ba30d	0.23011418
33	0x3e91b8a9	0.28461197
34	0x3e82e94a	0.2556861
35	0x3e3374e8	0.17525065
36	0x3e42d7d6	0.19027647
37	0x3e3f0de4	0.18657643
38	0x3eae615e	0.3405866
39	0x3e70283b	0.23452847
40	0x3e7c2d3d	0.24626632
41	0x3e89d5e6	0.26921004
42	0x3e5378e3	0.20651583
43	0x3e40b26b	0.18818061
44	0x3e47360f	0.19454215
45	0x3e703f07	0.23461543
46	0x3e82e29d	0.25563517
47	0x3e60aee7	0.2194172
48	0x3e571d68	0.21007311
49	0x3e84e33f	0.25954625
50	0x3e388e31	0.18022992
51	0x3e530457	0.20607124
52	0x3e7bc248	0.24585831
53	0x3e59cbe8	0.2126919
54	0x3e8682e3	0.26271734
55	0x3e3c005a	0.18359509
56	0x3e251b1b	0.16123621
57	0x3e561a08	0.20908368
58	0x3e610236	0.219735
59	0x3e333ee2	0.17504457
60	0x3e4269c0	0.18985653
61	0x3e156e29	0.14592804
62	0x3ec0672a	0.37578708
63	0x3e415a97	0.18882214
64	0x3ea3ff80	0.3203087
65	0x3e304107	0.17212306
66	0x3e6111da	0.21979466
67	0x3e3abfb6	0.18237194
68	0x3e31bdfb	0.17357628
69	0x3e4c7e8f	0.19970153
70	0x3e2f323e	0.1710901
71	0x3e30730f	0.17231391
72	0x3e8a6f85	0.27038208
73	0x3e3abf7c	0.18237108
74	0x3e80b806	0.251404
75	0x3e5e4c2f	0.21708749
76	0x3e57725b	0.21039717
77	0x3e42352d	0.18965597
78	0x3e5761f3	0.21033458
79	0x3e39b93a	0.18137065
80	0x3e3501fc	0.17676538
81	0x3e72a57e	0.23695943
82	0x3e457b71	0.1928537
83	0x3e27346e	0.16328594
84	0x3e3fd039	0.18731774
85	0x3e450ead	0.1924388
86	0x3e1f218d	0.15540142
87	0x3e274486	0.16334733
88	0x3e49c29d	0.19703145
89	0x3e12b8cb	0.14328305
90	0x3ea3cb15	0.31990877
91	0x3e281168	0.1641289
92	0x3e66ad2a	0.22526994
93	0x3e861999	0.26191404
94	0x3eb52f7b	0.35387787
95	0x3e387bcd	0.18015976
96	0x3e763dbc	0.24046987
97	0x3e9ff1c0	0.31239128
98	0x3e59c609	0.2126695
99	0x3e409cb1	0.18809773
100	0x3e6a31af	0.22870515
101	0x3e10ea66	0.14151916
102	0x3e71e0bd	0.23620887
103	0x3e53ca00	0.20682526
104	0x3e27a315	0.16370805
105	0x3e6bca35	0.23026355
106	0x3e4a8bec	0.19779938
107	0x3e4d470a	0.2004663
108	0x3e369f64	0.1783424
109	0x3e52ef52	0.20599106
110	0x3e6e90d9	0.23297442
111	0x3e8b71c3	0.2723523
112	0x3e53ebc2	0.20695403
113	0x3e739724	0.23788124
114	0x3e5e50d8	0.21710527
115	0x3e5ca0e3	0.21545748
116	0x3e276f7c	0.16351122
117	0x3e902876	0.2815587
118	0x3e3b0a7c	0.18265718
119	0x3e3e7e52	0.18602875
120	0x3e3bf2dd	0.18354364
121	0x3e468bf0	0.1938932
122	0x3e9ecc90	0.31015444
123	0x3e1730d5	0.14764722
124	0x3ea38161	0.31934646
125	0x3e3cdc78	0.18443477
126	0x3e74d9df	0.23911236
127	0x3e3a5782	0.18197444
128	0x3e5df1cc	0.2167427
129	0x3e400f37	0.18755804
130	0x3e542f47	0.2072116
131	0x3e256201	0.16150667
132	0x3e26f771	0.16305329
133	0x3e3de399	0.18543853
134	0x3e3a7f5d	0.18212648
135	0x3e7647db	0.24050848
136	0x3e75cf1a	0.24004784
137	0x3e38c00b	0.18042009
138	0x3e349d28	0.17638075
139	0x3e781c6c	0.24229592
140	0x3e9bee1b	0.30455098
141	0x3eb1b735	0.34710088
142	0x3e816975	0.2527577
143	0x3e83a2e9	0.25710228
144	0x3e409d1d	0.18809934
145	0x3e4bb6a7	0.19893895
146	0x3e7e062c	0.24807042
147	0x3e2f0289	0.17090811
148	0x3e2fb6ad	0.17159529
149	0x3e1bdca7	0.15220891
150	0x3e6b84c5	0.22999866
151	0x3e7b71df	0.24555157
152	0x3e8bec9d	0.2732896
153	0x3e5cc969	0.21561207
154	0x3e65ac25	0.22428949
155	0x3e38dade	0.18052241
156	0x3ebc2902	0.36750036
157	0x3e8bd63a	0.2731188
158	0x3e29f963	0.1659904
159	0x3e521ca0	0.20518732
160	0x3e1e005c	0.15429825
161	0x3e8bdf7f	0.2731895
162	0x3e40f5c0	0.18843746
163	0x3e911f2a	0.2834409
164	0x3e80d6b0	0.25163794
165	0x3e81d55b	0.2535809
166	0x3e9aaf92	0.30212075
167	0x3e5ba02f	0.21447824
168	0x3e693a61	0.22776176
169	0x3e53be64	0.20678097
170	0x3e74cd4a	0.23906437
171	0x3e61afcb	0.22039716
172	0x3e1b8e56	0.15191016
173	0x3e2f4cf5	0.171192
174	0x3eb57328	0.3543942
175	0x3e2931e3	0.16522937
176	0x3e7559c6	0.23960027
177	0x3e13fafc	0.14451212
178	0x3e48862b	0.19582431
179	0x3e4a1d52	0.19737747
180	0x3e4e5274	0.20148641
181	0x3e4f4cf7	0.20244204
182	0x3e268dc6	0.1626502
183	0x3e711c07	0.23545848
184	0x3e0cf012	0.13763455
185	0x3eb6225e	0.35573095
186	0x3e33f179	0.17572583
187	0x3e405d83	0.18785672
188	0x3e67ce0d	0.22637196
189	0x3e2c3511	0.16817118
190	0x3e879e79	0.26488093
191	0x3e336a0f	0.17520927
192	0x3e4d48dd	0.20047326
193	0x3e6f54e6	0.2337223
194	0x3e389c16	0.18028292
195	0x3e785ec2	0.24254897
196	0x3e5fcb4c	0.21854895
197	0x3e7755f0	0.24153876
198	0x3e55fd32	0.20897368
199	0x3e83e4d7	0.25760528

weight f4 [100, 200]
0	0x3da7b58a	0.08188923
1	0x3c28dd3b	0.010306652
2	0xbd2fd3a7	-0.042926457
3	0x3cb92fae	0.022605743
4	0xbd48e609	-0.049047504
5	0xbd0f73ba	-0.035022475
6	0x3b9933e6	0.004675376
7	0xbbd71156	-0.006563346
8	0x3d028b79	0.031871293
9	0x3d71da63	0.05904616
10	0xbd3d0d0a	-0.046155013
11	0x3d847a07	0.06468587
12	0xbd92107b	-0.0713205
13	0xbd26e37b	-0.040744286
14	0x3d2394e7	0.039936926
15	0xbd2dda75	-0.042444665
16	0xbd213f54	-0.039367035
17	0xbb099cbc	-0.0020997962
18	0x3ce075d7	0.02739994
19	0x3c2faa3e	0.010721741
20	0x3d881ec4	0.06646493
21	0x3d1f43f4	0.038883165
22	0xbd80887e	-0.06276034
23	0xbd81de16	-0.06341188
24	0xbb3f16f7	-0.0029157975
25	0xbc980c9e	-0.018560704
26	0xbbc63227	-0.006048459
27	0x3d3ba0c3	0.04580761
28	0x3cdeb29e	0.02718478
29	0xbd9ef07d	-0.07760713
30	0xbab1d593	-0.0013567678
31	0x3c82d232	0.01596937
32	0x3cada5b4	0.021197177
33	0xba45aec3	-0.0007540995
34	0x3d141e3f	0.036161657
35	0x3d446620	0.047948956
36	0xbdb2d0f1	-0.08731259
37	0xbd74ca6a	-0.05976335
38	0x3cb9c4bd	0.02267682
39	0x3d06a247	0.032869603
40	0xbd6aed2f	-0.057355102
41	0xbd28c18b	-0.041200202
42	0xbdaf7fc4	-0.08569291
43	0x3d389cbe	0.045071356
44	0x3d1e677e	0.038672917
45	0x3da130d3	0.078706406
46	0xbd809612	-0.06278624
47	0x3d93c8cb	0.072160326
48	0xbbeec537	-0.0072866934
49	0xbd526018	-0.051361173
50	0x3d2cfd8d	0.042233992
51	0x3d935c4a	0.07195337
52	0xbc54971c	-0.01297548
53	0xbcf23fe6	-0.029571485
54	0x3cdf3fce	0.027252104
55	0x3d19d297	0.03755435
56	0x3c5764e2	0.013146611
57	0xbcb769b5	-0.022389272
58	0xbc02df5f	-0.007987826
59	0x3d23aa6f	0.03995746
60	0x3ca2afc9	0.019859212
61	0x3c513f84	0.012771491
62	0x3c7015f4	0.0146536715
63	0x3bd498b0	0.0064879283
64	0x3ce81a6b	0.02833291
65	0xbd15ce0d	-0.03657346
66	0x3d71a382	0.058993824
67	0xbceb88eb	-0.028751811
68	0xbda5b173	-0.080904864
69	0x3d3c2826	0.045936726
70	0xbdabdc81	-0.08391667
71	0xbd24cdc0	-0.04023528
72	0xbb716680	-0.0036834776
73	0x3d89e13c	0.06732413
74	0xbd15f77d	-0.036612976
75	0x3c672c5b	0.014109696
76	0xbd31f690	-0.04344803
77	0x3cacc30f	0.021089105
78	0x3d6bf901	0.057610516
79	0x3c5716ae	0.013127966
80	0xbda01a16	-0.078174755
81	0xbda5d30f	-0.08096897
82	0xbd9b7719	-0.075910755
83	0xbc83f367	-0.016107274
84	0xbd6201cf	-0.055177506
85	0x3c913175	0.017723778
86	0x3d2a7cca	0.041622914
87	0xbd18decd	-0.037321854
88	0x3d00789e	0.03136503
89	0xbd917fb2	-0.07104434
90	0x3d074e02	0.03303338
91	0x3b218961	0.0024648535
92	0x3d33c8cb	0.043892663
93	0x3d6e8a75	0.05823751
94	0xbd372e61	-0.044721965
95	0x3d48a860	0.0489887
96	0xbd94556c	-0.072428554
97	0xbd51c94c	-0.051217362
98	0x3d051945	0.032494802
99	0xbcd5f1db	-0.026116302
100	0xbd676c37	-0.056499686
101	0xbd0e459e	-0.03473436
102	0xbd3743ab	-0.044742268
103	0xbd812595	-0.06305996
104	0x3cc26f25	0.023734638
105	0xbd5602c6	-0.05224874
106	0xbc57f08f	-0.013179912
107	0x3d0574c2	0.032582052
108	0xbd97985b	-0.074021064
109	0x3d68780a	0.056755103
110	0x3d1ec3af	0.038760837
111	0xbb913f27	-0.004432577
112	0xbd1fd39b	-0.039020162
113	0xbd28a906	-0.04117682
114	0x3d42095f	0.04737222
115	0x3d8cc7e7	0.06874066
116	0x3ce6d41a	0.02817731
117	0x3d83ea93	0.06441226
118	0xbd5b3b40	-0.053523302
119	0xbd36ce24	-0.044630185
120	0x3dc910e3	0.09817674
121	0xbdbac5ce	-0.091197595
122	0x3c508125	0.012726103
123	0xbd055594	-0.032552317
124	0xbd3028fc	-0.043007836
125	0x3cccaa83	0.02498365
126	0xbd0e648a	-0.03476385
127	0x3cc5c5c2	0.02414215
128	0xbd530dbb	-0.051526766
129	0x3ccd9f15	0.02510027
130	0xbad5f02a	-0.0016322185
131	0xbd5cf8d1	-0.053948227
132	0x3d7b0605	0.061285038
133	0x3d0b9c9c	0.0340849
134	0xbd87bc79	-0.06627745
135	0x3c8edac7	0.017438306
136	0xbd2746f1	-0.04083914
137	0x3d038ead	0.032118488
138	0xbd2f6db9	-0.04282925
139	0x3d4cd78e	0.050010256
140	0xbd98ea1e	-0.07466529
141	0xbcb31593	-0.021860873
142	0x3d038260	0.032106757
143	0x3cfe0a79	0.031010853
144	0xbd2f4129	-0.04278675
145	0x3d9a0dd0	0.07522166
146	0x3d05f28f	0.032702025
147	0x3d42c155	0.047547657
148	0xbc845d77	-0.016157849
149	0x3d115293	0.03547914
150	0x3c93e617	0.018054051
151	0x3d4ed2a3	0.050493848
152	0x3d986c42	0.074425235
153	0x3d8700aa	0.065919235
154	0x3d62a43f	0.05533242
155	0xba205730	-0.00061165076
156	0xbd6dc900	-0.058053017
157	0x3c99be43	0.018767482
158	0x3c66ca5e	0.014086334
159	0xbc88090f	-0.016605882
160	0xbd8a3672	-0.06748666
161	0xbcb26cf2	-0.021780465
162	0xbc7bb552	-0.015363054
163	0x3cf20652	0.02954403
164	0x3ceaaf9c	0.02864819
165	0x3c4d6220	0.012535602
166	0x3d321849	0.04348019
167	0xbc1c7578	-0.009549491
168	0x3d402dae	0.046918564
169	0xbd56cf2f	-0.05244368
170	0x3cd79612	0.026316676
171	0xbcc6fa0c	-0.024289154
172	0x3da36779	0.0797872
173	0x3c4c2e5e	0.012462227
174	0xbd392300	-0.045199394
175	0xbced168d	-0.028941417
176	0x3a5ab024	0.0008342287
177	0x3d729b89	0.05923036
178	0x3cc04227	0.023469044
179	0xbd6384d8	-0.05554661
180	0xbd04c2f8	-0.0324125
181	0xbba6bf03	-0.0050886883
182	0x3c921023	0.01782996
183	0xbb2d5d20	-0.0026453212
184	0xbc9874c0	-0.018610358
185	0x3d6a24ee	0.057164125
186	0xbc656e06	-0.014003282
187	0x3d6acff0	0.05732721
188	0x3a2fa791	0.00067006896
189	0x3ccc2b1c	0.0249229
190	0x3d1659b2	0.036706634
191	0xbc1bc85e	-0.0095082205
192	0x3c8f798d	0.017514015
193	0x3b80e599	0.00393362
194	0x3c14b08f	0.009075298
195	0xbd028404	-0.03186418
196	0xbc8f0d55	-0.017462412
197	0xbd29e25c	-0.04147564
198	0xbc16177e	-0.009160874
199	0x3d5720e5	0.052521605
200	0xbd279d34	-0.040921405
201	0x3d2fb9a4	0.04290165
202	0xbd84bf4d	-0.064818
203	0x3d2f68d7	0.042824592
204	0xbdbc14ce	-0.09183656
205	0xbd2bf459	-0.041981075
206	0x3cae6b00	0.021291256
207	0x3b2d782e	0.0026469338
208	0x3cf553b3	0.029947137
209	0xbd0e21af	-0.034700092
210	0x3cb730cf	0.022362141
211	0x3cd16083	0.025558716
212	0x3d3a1899	0.045433614
213	0xbd567aa8	-0.052363068
214	0xbd11fb8f	-0.035640296
215	0xbc5f55c0	-0.013631284
216	0x3ce5a477	0.028032525
217	0x3d2d7367	0.042346384
218	0x3d3ad900	0.045617104
219	0x3c85a112	0.016312156
220	0xbd67724a	-0.05650548
221	0xbd917b4e	-0.07103597
222	0x3d4df82c	0.050285503
223	0x3cd3a28c	0.025834344
224	0xbd116b6b	-0.035502832
225	0xbcc292fe	-0.023751732
226	0x3d008bd8	0.031383365
227	0x3c34d0e8	0.011036135
228	0x3d57d261	0.052690867
229	0xbc27c7c0	-0.010240495
230	0x3c89e412	0.016832385
231	0x3d2a6027	0.041595604
232	0xbd84fe03	-0.064937614
233	0x3bc65bec	0.0060534384
234	0xbd93e0f4	-0.07220641
235	0xbd23830a	-0.03991989
236	0xbd393adc	-0.04522215
237	0x3d20fb59	0.039302204
238	0xbc6b99ac	-0.0143799
239	0x3d0862b2	0.03329725
240	0xbbb3eb03	-0.005490662
241	0x3c0c5b11	0.008566634
242	0xbd7a1171	-0.06105179
243	0xbd5ef11b	-0.054429155
244	0xbce1c484	-0.027559526
245	0xbcebbe08	-0.028777137
246	0x3d1e7ca5	0.03869309
247	0x3d2617dd	0.0405501
248	0xbcdfda33	-0.027325725
249	0xbd85a4e8	-0.06525594
250	0xbd30dcad	-0.043179203
251	0xbd72ccda	-0.059277393
252	0xbd30b83a	-0.043144442
253	0x3bcaf5ac	0.006193837
254	0x3c653437	0.0139895
255	0xbd0a7503	-0.033802997

weight f4 [100]
0	0x3f80ae4c	1.0053191
1	0x3f7bdd4d	0.98384553
2	0x3f7cbe93	0.98728293
3	0x3f827685	1.0192419
4	0x3f7fe6fb	0.99961823
5	0x3f8828e9	1.0637485
6	0x3f824fc8	1.0180597
7	0x3f804bed	1.0023171
8	0x3f7ce21e	0.9878253
9	0x3f7b1653	0.9808094
10	0x3f7e3b51	0.9930926
11	0x3f802178	1.0010214
12	0x3f7ecc39	0.9953037
13	0x3f7d79eb	0.9901416
14	0x3f797b6d	0.9745396
15	0x3f7a8515	0.9785932
16	0x3f834699	1.025592
17	0x3f7fb984	0.9989245
18	0x3f7f2f93	0.9968197
19	0x3f8099ad	1.0046898
20	0x3f806ca0	1.003315
21	0x3f7fc7d2	0.99914277
22	0x3f82e740	1.0226822
23	0x3f841868	1.0319948
24	0x3f80927d	1.0044705
25	0x3f7df0c7	0.9919552
26	0x3f81d14b	1.0141996
27	0x3f817b99	1.0115844
28	0x3f7edf2a	0.9955927
29	0x3f7df2d3	0.99198645
30	0x3f8048d3	1.0022224
31	0x3f8175f2	1.0114119
32	0x3f7c34fe	0.9851836
33	0x3f810706	1.0080268
34	0x3f7dcdf2	0.9914237
35	0x3f7c7a46	0.98624074
36	0x3f81396e	1.0095651
37	0x3f82103f	1.0161208
38	0x3f7e4fb0	0.99340343
39	0x3f8049b1	1.0022489
40	0x3f804aab	1.0022787
41	0x3f7d638a	0.9898001
42	0x3f7a0c9b	0.97675484
43	0x3f79af5a	0.9753319
44	0x3f7bad1b	0.98311013
45	0x3f78a114	0.97120786
46	0x3f8281ea	1.0195897
47	0x3f8053ee	1.0025613
48	0x3f7fd2bc	0.9993093
49	0x3f7686e4	0.96299577
50	0x3f7979ad	0.9745129
51	0x3f7deaba	0.9918629
52	0x3f7d8f0f	0.99046415
53	0x3f823dc5	1.01751
54	0x3f7d82db	0.99027795
55	0x3f822b6a	1.0169499
56	0x3f7a6177	0.9780497
57	0x3f7e9eb9	0.9946094
58	0x3f7a0d99	0.97677
59	0x3f822040	1.0166092
60	0x3f794ab0	0.9737959
61	0x3f81bf0e	1.013643
62	0x3f81444a	1.0098965
63	0x3f7e67bc	0.99377036
64	0x3f7ac704	0.97959924
65	0x3f7d4f82	0.98949444
66	0x3f815a03	1.0105594
67	0x3f82ad00	1.0209045
68	0x3f7b55a8	0.98177576
69	0x3f823971	1.017378
70	0x3f7c2b25	0.98503333
71	0x3f7d7cd3	0.9901859
72	0x3f7b54d8	0.98176336
73	0x3f7f4ddf	0.99728197
74	0x3f841615	1.0319239
75	0x3f7e8ac0	0.99430466
76	0x3f7b8e6e	0.98264205
77	0x3f7d8d29	0.9904352
78	0x3f80ee7c	1.007278
79	0x3f7b10fe	0.98072803
80	0x3f842672	1.0324233
81	0x3f7fd43c	0.9993322
82	0x3f7a60c4	0.978039
83	0x3f803a28	1.0017748
84	0x3f7e5853	0.9935352
85	0x3f7fdb1d	0.99943715
86	0x3f806fe5	1.0034148
87	0x3f7db455	0.9910329
88	0x3f7cc0d0	0.9873171
89	0x3f7abaa5	0.97941047
90	0x3f80cc78	1.0062399
91	0x3f7feeb5	0.99973613
92	0x3f8102de	1.0079
93	0x3f7dbfa9	0.99120575
94	0x3f7d5108	0.9895177
95	0x3f7ad162	0.9797574
96	0x3f7ffa23	0.99991053
97	0x3f8098ff	1.0046691
98	0x3f830dcb	1.0238584
99	0x3f82238e	1.01671

bias f4 [100]
0	0x3d9a5682	0.07536031
1	0xbd8cace4	-0.06868914
2	0xbd8dac50	-0.069176316
3	0x3d9948f8	0.07484621
4	0xbd91ef0f	-0.07125675
5	0xbdb667b7	-0.08906501
6	0x3da699d7	0.08134811
7	0x3d990d5e	0.07473253
8	0x3d90dee8	0.07073766
9	0x3d8eb3ff	0.06967925
10	0x3da7f0ba	0.08200212
11	0x3d93b0a6	0.072114274
12	0x3d920979	0.07130713
13	0x3d9f7708	0.07786375
14	0x3d8a4a33	0.06752434
15	0xbd7b19df	-0.06130397
16	0xbd9a7c86	-0.07543282
17	0xbd97538d	-0.07388983
18	0x3d995074	0.07486048
19	0x3d9aaf9f	0.07553028
20	0x3d9fdc07	0.07805639
21	0xbd877ac3	-0.06615212
22	0xbda714dd	-0.08158276
23	0x3d9ca04d	0.076477624
24	0xbd9240c1	-0.07141257
25	0xbd90fe27	-0.07079726
26	0xbda1ec49	-0.07906396
27	0x3da4b612	0.0804254
28	0x3d9452f3	0.07242384
29	0x3d932fbb	0.07186838
30	0xbd8cb53a	-0.06870504
31	0x3da7b5f4	0.08189002
32	0xbd69df1e	-0.057097547
33	0x3da490c3	0.080354236
34	0x3d8926cb	0.06696852
35	0x3d902141	0.07037593
36	0xbd8c650d	-0.068552114
37	0xbd969695	-0.0735294
38	0x3d97a9a5	0.07405404
39	0xbd9e3370	-0.07724655
40	0xbd8dbd11	-0.06920827
41	0xbd8ad0d1	-0.0677811
42	0x3d875505	0.06608013
43	0xbd4ee7e3	-0.050514113
44	0x3d8d74dd	0.069070555
45	0x3ce886e2	0.02838463
46	0xbd933adf	-0.07188963
47	0x3da61896	0.08110158
48	0xbd8f408b	-0.069947325
49	0x3d40e6a7	0.047094967
50	0xbd7cbd44	-0.061703935
51	0x3d8b3eb1	0.06799067
52	0x3d7fcb30	0.062449634
53	0x3da52523	0.08063724
54	0x3d923cbe	0.07140492
55	0xbd94e47e	-0.07270144
56	0xbd7c0722	-0.06153024
57	0x3d97d16a	0.074129894
58	0x3b766c04	0.0037601003
59	0x3da3f10a	0.08004959
60	0x3d8af5f8	0.06785196
61	0x3d9dfe46	0.077145144
62	0xbd966127	-0.07342749
63	0xbd8f1ace	-0.069875345
64	0x3d847a29	0.06468613
65	0xbd8d4892	-0.06898607
66	0xbd99e76c	-0.07514843
67	0x3d9fb87e	0.07798861
68	0xbd64eece	-0.055891804
69	0xbd92aa4b	-0.07161387
70	0xbd877b8b	-0.06615361
71	0xbd8e0d95	-0.06936184
72	0xbd853335	-0.065039076
73	0x3d97fabe	0.07420872
74	0xbdae9d48	-0.08526093
75	0x3d9a8387	0.07544618
76	0x3d45c238	0.048280925
77	0xbd8e03c2	-0.069343105
78	0xbd986b04	-0.074422866
79	0xbd8de218	-0.069278896
80	0xbd950d8a	-0.07277973
81	0x3d9a71c5	0.07541231
82	0xbd60964e	-0.05483084
83	0x3d9947ec	0.07484421
84	0x3db278a6	0.08714418
85	0x3d91e97a	0.0712461
86	0xbd9608a8	-0.0732587
87	0xbd8abe27	-0.0677455
88	0x3d9368a3	0.07197692
89	0xbd5db9d6	-0.054132305
90	0xbda0f735	-0.07859651
91	0x3d959b74	0.07305041
92	0x3d9a2642	0.07526828
93	0x3d8f9c07	0.07012182
94	0x3d8fb27d	0.07016466
95	0xbd8761ea	-0.066104725
96	0x3d96debf	0.07366704
97	0x3d9b3546	0.075785205
98	0xbd9ae534	-0.07563248
99	0x3da20036	0.079101965

running_mean f4 [100]
0	0x3e963400	0.29336548
1	0x3e8103ce	0.25198215
2	0x3e802bf5	0.25033537
3	0x3e9071a1	0.28211692
4	0x3e9cb22a	0.30604678
5	0x3e5307ed	0.20608492
6	0x3e543bd7	0.20725952
7	0x3e81e8dc	0.2537297
8	0x3e8db710	0.27678728
9	0x3e7b3539	0.24532022
10	0x3e530c52	0.20610169
11	0x3e9406b0	0.28911352
12	0x3ea37745	0.31926933
13	0x3e879472	0.26480442
14	0x3e94211e	0.28931516
15	0x3ea4bad3	0.32173786
16	0x3e9088af	0.2822928
17	0x3e7ad9cc	0.24497145
18	0x3e9f1ca4	0.3107654
19	0x3e7b33c5	0.24531467
20	0x3e4fb9c5	0.20285709
21	0x3ec1a681	0.37822345
22	0x3e730a1e	0.23734328
23	0x3eb32a14	0.3499304
24	0x3e6cd129	0.23126663
25	0x3e7b0792	0.24514607
26	0x3e634789	0.22195257
27	0x3e5fb3ea	0.21845976
28	0x3e95f748	0.29290223
29	0x3e4d88d1	0.20071723
30	0x3e7800de	0.24219081
31	0x3e7fac9d	0.2496819
32	0x3e870579	0.26371363
33	0x3e8e805a	0.278323
34	0x3e834eac	0.2564596
35	0x3e8ef7eb	0.2792352
36	0x3e7eb3f8	0.2487334
37	0x3e6c9282	0.23102763
38	0x3ed45149	0.41468266
39	0x3e68fa9a	0.22751847
40	0x3e6eecb8	0.23332489
41	0x3e8d1ff6	0.27563447
42	0x3e927716	0.2860648
43	0x3e8ab16e	0.27088493
44	0x3e8fc0ae	0.2807669
45	0x3e73fe2f	0.23827432
46	0x3e815bfb	0.25265488
47	0x3eaac561	0.33353713
48	0x3e8d6f30	0.27623892
49	0x3e65c7f5	0.22439559
50	0x3e715bee	0.23570225
51	0x3e94bbdd	0.29049578
52	0x3e90167b	0.2814215
53	0x3e70357f	0.23457907
54	0x3e731151	0.23737074
55	0x3e5ab6ea	0.21358839
56	0x3e947f29	0.29003266
57	0x3e871dfd	0.26390067
58	0x3e7f0f62	0.24908212
59	0x3e8b7af9	0.27242258
60	0x3e77b597	0.24190365
61	0x3e797566	0.2436119
62	0x3eaa4f28	0.33263516
63	0x3e997b07	0.29976675
64	0x3e668516	0.22511706
65	0x3e8dd206	0.27699298
66	0x3e5d14e7	0.21590005
67	0x3e81a1c4	0.2531873
68	0x3e7c53f7	0.24641405
69	0x3e806a46	0.2508108
70	0x3e8496e8	0.25896382
71	0x3e99699b	0.29963383
72	0x3e84c1c1	0.25929072
73	0x3e5e11c6	0.21686468
74	0x3e9a80a3	0.30176267
75	0x3eaa7539	0.3329256
76	0x3e88069b	0.2656754
77	0x3e9565fa	0.29179364
78	0x3e822f5d	0.2542676
79	0x3e75542e	0.23957893
80	0x3eaffc01	0.3437195
81	0x3e852da9	0.26011398
82	0x3e95d31d	0.2926263
83	0x3e83c878	0.25738883
84	0x3e8188fa	0.25299817
85	0x3e80283b	0.25030693
86	0x3e85407b	0.26025757
87	0x3e6b3a9f	0.22971581
88	0x3e54e229	0.20789398
89	0x3e8b09e8	0.27155995
90	0x3e925c40	0.28586006
91	0x3e8c05a3	0.2734805
92	0x3e8f1bcf	0.27950904
93	0x3e7e6e86	0.24846849
94	0x3e8de569	0.2771409
95	0x3e7c3421	0.2462926
96	0x3e972c02	0.29525763
97	0x3e4c9456	0.1997846
98	0x3ea0c96b	0.3140367
99	0x3e7fc09d	0.2497582

running_var f4 [100]
0	0x3ec02d73	0.37534675
1	0x3e97816d	0.29590932
2	0x3e9d3815	0.3070685
3	0x3ed4f839	0.4159563
4	0x3ed45772	0.41472965
5	0x3e7f8916	0.24954638
6	0x3e538993	0.20657949
7	0x3ead2db1	0.33823922
8	0x3ea844b6	0.32864922
9	0x3e9113bb	0.28335366
10	0x3e6ac9dc	0.22928566
11	0x3ec30459	0.38089254
12	0x3ec6b44b	0.38809428
13	0x3e9a05e0	0.30082607
14	0x3eedaa10	0.4641881
15	0x3ed938cb	0.42426142
16	0x3eba110e	0.36341137
17	0x3e8dad17	0.2767112
18	0x3eb321a4	0.34986603
19	0x3ec26e97	0.37974998
20	0x3e9100c5	0.283209
21	0x3f16bb7d	0.58879834
22	0x3e7a0832	0.24417189
23	0x3ec65e97	0.3874404
24	0x3e8aef3f	0.27135655
25	0x3e91d0b5	0.28479543
26	0x3e97128b	0.29506335
27	0x3e97a83e	0.29620546
28	0x3ea043a6	0.31301612
29	0x3e76f8a0	0.2411828
30	0x3ea71641	0.32634166
31	0x3e9a3d7f	0.30125043
32	0x3eba9523	0.36441907
33	0x3e964305	0.29348007
34	0x3ea012be	0.312643
35	0x3e97132d	0.29506817
36	0x3e860705	0.2617723
37	0x3e55218c	0.20813578
38	0x3f017c45	0.50580245
39	0x3e67df61	0.22643806
40	0x3e8cf224	0.2752849
41	0x3eaf5be0	0.34249783
42	0x3ec8d3e2	0.39224154
43	0x3ec6d586	0.3883478
44	0x3ec46210	0.38356066
45	0x3e817c3f	0.25290105
46	0x3e895ae1	0.26827148
47	0x3ee96057	0.45581314
48	0x3ed2ac75	0.411472
49	0x3e805eea	0.25072414
50	0x3e6f78d9	0.23385943
51	0x3ea08387	0.31350347
52	0x3e9a0529	0.30082062
53	0x3e81d230	0.25355673
54	0x3e877387	0.26455328
55	0x3e73ecfe	0.23820874
56	0x3ea05708	0.313164
57	0x3eb41474	0.35171854
58	0x3e5d3558	0.2160238
59	0x3ec619a0	0.38691425
60	0x3ea02ab5	0.31282583
61	0x3ea9092c	0.3301481
62	0x3ec998ba	0.39374334
63	0x3ebb6fc4	0.36608708
64	0x3e98ad4c	0.29819715
65	0x3ea6a7c2	0.32549864
66	0x3e735152	0.2376149
67	0x3e8bfa2a	0.27339298
68	0x3e8509d2	0.25984055
69	0x3e739bb3	0.23789863
70	0x3ea00479	0.31253412
71	0x3e9f7bb5	0.31149068
72	0x3ec4ff0f	0.38475844
73	0x3e628311	0.2212031
74	0x3e993012	0.29919487
75	0x3f0da921	0.55336195
76	0x3e6e4bcb	0.232711
77	0x3ec18add	0.37801257
78	0x3e84a07f	0.259037
79	0x3ea91289	0.33021954
80	0x3ec8100e	0.3907475
81	0x3e8c854a	0.2744544
82	0x3ec91e3f	0.39280888
83	0x3e88e154	0.26734412
84	0x3e805dcb	0.25071558
85	0x3e8bda1b	0.2731484
86	0x3e8e08fb	0.27741227
87	0x3e946e4a	0.28990394
88	0x3e6c95d5	0.23104031
89	0x3ed2a111	0.4113851
90	0x3e9eeee7	0.31041643
91	0x3eba774f	0.3641915
92	0x3e9139b5	0.2836434
93	0x3e9f47d4	0.31109488
94	0x3ee27339	0.44228533
95	0x3e89c16d	0.26905385
96	0x3efc8f27	0.49327967
97	0x3e66bc4d	0.22532769
98	0x3e9e3566	0.30900115
99	0x3e8e2532	0.27762753
